dynamic_gesture_model.pth (torch, 108236 bytes, 31 tensors)

pos_embedding f4 [1, 20, 32]
000000 81 20 ee be 1d db a5 be b1 f1 b8 bf 83 48 21 c0
       -0.46509174 -0.32393733 -1.4448758 -2.5200508
000010 3a ae 7f 3f 7c 0e a6 be 4f 51 45 bd 65 1c b6 bf
       0.99875224 -0.32432926 -0.048173245 -1.4227415
000020 03 45 27 3e 97 30 af 3f 55 ac 84 bd 37 33 b0 bf
       0.1633492 1.3686703 -0.06478182 -1.376563
000030 c1 d5 73 3f 7d d3 a5 3e b8 38 3b 3f 75 21 36 be
       0.9524804 0.32387915 0.7313342 -0.177862
000040 a5 f0 cd 3d 71 f0 99 be 9c 0d 93 be e6 fd 0d 3d
       0.10055665 -0.30066255 -0.2872132 0.034665965
000050 af 40 50 bf a2 57 09 3e 3b 00 80 3f 87 95 9b 3e
       -0.813487 0.13412336 1.000007 0.30387518
000060 fa 2b 7c bf 05 fc 68 3e 37 48 da be ab e1 f5 3e
       -0.985046 0.22752388 -0.4263322 0.48023733
000070 bf 15 06 bf 54 81 b5 3f b3 5b 99 be d1 22 21 3f
       -0.5237693 1.4180093 -0.29952773 0.6294375
000080 9c 31 cc 3f 06 30 1e c0 01 81 90 3f b5 05 90 3f
       1.595264 -2.471681 1.1289369 1.1251742
000090 bd 41 e0 bd a6 4b 45 bf df f5 6c bf ff 0f 94 bd
       -0.109500386 -0.77068555 -0.9256267 -0.072296135
0000a0 48 e2 c5 3f 44 ea 21 c0 7b 13 6c bf 9f 5c 1a 3c
       1.545968 -2.5299234 -0.92217225 0.009421497
0000b0 b9 db ac 3e b2 3d c1 bf 2a e4 b4 3d 71 40 b6 bf
       0.33761385 -1.5096953 0.08832581 -1.4238416
0000c0 98 60 d7 3c 07 c7 16 3f a2 23 3a bf 0a ba 14 bf
       0.026291177 0.5889744 -0.7271062 -0.58096373
0000d0 aa e8 b6 3e b4 da 5f 3f 58 37 d0 3f ea 82 bd bf
       0.35724384 0.8744309 1.626689 -1.4805577
0000e0 81 63 eb bd 09 d0 72 bf 32 3a 11 40 07 82 80 bf
       -0.11493588 -0.94848686 2.269177 -1.0039681
0000f0 50 d8 14 be 2e 36 1e 40 88 80 0f 3f 7e ab 1c 3d
       -0.14535642 2.4720569 0.560555 0.038249485
000100 e7 b6 c9 be 33 cf 08 3f 2a 5c 38 bf f1 d3 1c bf
       -0.39397356 0.5344116 -0.7201563 -0.61260897
000110 64 00 0b c0 ed 08 24 3d af 9d f5 bc b8 45 34 3e
       -2.1718988 0.040047575 -0.029982416 0.1760472
000120 b1 56 97 bf ba 45 d6 be 8b b8 ca 3e 08 52 6a 3f
       -1.1823331 -0.41850072 0.3959392 0.9153142
000130 b3 5f 89 3f fc e4 db 3f 27 55 37 3e cb f4 d4 be
       1.073233 1.7179255 0.17903577 -0.41593012
000140 eb 82 af bf 0d 03 f9 bf 9c 22 18 bf 94 79 7e be
       -1.3711828 -1.9454056 -0.5942781 -0.24851066
000150 6d 48 7f bb 09 db 9c 3e 8b 5a da be d5 86 1d 3f
       -0.0038953081 0.3063586 -0.42647204 0.6153386
000160 5b d9 8f 3f 44 aa f9 3d 23 61 62 bf 3b 4d 11 bd
       1.1238207 0.12190679 -0.8842947 -0.035474043
000170 b9 5f 11 c0 5f b8 a8 be 08 b6 4d 3f 08 3b 9f 3f
       -2.2714674 -0.32953164 0.8035588 1.243989
000180 1c b1 14 bf e8 0c b7 be 84 be 3b bf 41 a0 2c 40
       -0.5808275 -0.35752034 -0.7333758 2.6972811
000190 21 fa ef bf 99 cc f1 bd 3c 4d 81 3f 87 90 e2 be
       -1.8748208 -0.11806602 1.0101695 -0.4425089
0001a0 3f f1 91 3d c2 3a 18 3e 4a d2 b6 3e 08 6f 5f 3f
       0.07126092 0.14866164 0.35707313 0.87278795
0001b0 ec aa 9b bf cb 3c 02 3f 15 a5 52 3e 8b 1c 22 3f
       -1.2161536 0.5087401 0.20570786 0.63324803
0001c0 1d 3c 37 3e d4 80 09 bf 25 27 22 bf 7d 26 f5 3e
       0.17894025 -0.537122 -0.6334098 0.47880927
0001d0 0f da 6d 3f e3 ed c2 3f c9 dd 12 3f 00 b7 0e bf
       0.92910856 1.5228847 0.5736967 -0.55747986
0001e0 fe 65 7c 3d bf d0 8b bd e8 f7 ea be 63 b5 60 bf
       0.061620705 -0.068269245 -0.45892262 -0.87776774
0001f0 61 1c b7 3d 9c 8c 2e 40 98 9d 9a bf 56 9e 64 3f
       0.0894096 2.727332 -1.2079344 0.893041
000200 49 6f 57 3f 9b 52 6e 3f 23 81 2d be f3 3d 5d 3f
       0.8415418 0.93094796 -0.16943793 0.8642265
000210 1e 23 5c bf d6 70 f5 3e 5a a0 c0 3f 7e 43 61 be
       -0.85991085 0.4793765 1.5048935 -0.21998402
000220 29 68 49 bf 90 3a 4a bf f1 59 90 bf ff 62 72 bf
       -0.7867456 -0.7899561 -1.1277448 -0.94682306
000230 fd 53 b4 3f 6a 42 30 bf f5 dd d1 3f 4c ba 95 bf
       1.4088131 -0.6885134 1.6395861 -1.1697478
000240 ae d3 a1 be 07 2c 15 40 41 0e ee bf dd ed 92 3e
       -0.3160681 2.3308122 -1.85981 0.286971
000250 51 d1 9b bf 19 c0 4c 3f d5 d9 29 bf e5 57 5c 3f
       -1.2173253 0.7998062 -0.6634801 0.86071616
000260 36 b8 67 bf 55 b3 41 c0 94 d3 9d 3e 29 1c ec 3e
       -0.9051546 -3.0265706 0.30825484 0.46115234
000270 9c 28 96 3b 22 2c fe bf c3 cc c3 3e 18 84 21 bf
       0.0045824777 -1.9857218 0.38242158 -0.63092184
000280 3e bb 3e bf 3b 7a 81 3f f0 1d c6 be 87 3f 2c 3f
       -0.7450446 1.0115427 -0.38694715 0.67284435
000290 84 62 97 bf 16 2c 08 bf ef 13 45 3f 75 94 1f bf
       -1.182694 -0.5319227 0.7698354 -0.623359
0002a0 e1 1d 16 3f 77 ff 96 bd 64 94 09 bf 53 1d c3 3f
       0.5863934 -0.07372945 -0.5374205 1.5243324
0002b0 c9 e7 21 bd 39 99 2d bf c8 7d 2c bf 09 48 50 bf
       -0.03952769 -0.67811924 -0.67379427 -0.81359917
0002c0 d4 38 68 bf 57 a1 54 3f 2a af 27 3f d9 5f 91 3f
       -0.9071171 0.83058685 0.65501654 1.1357375
0002d0 6f b4 e4 3f 23 52 f6 3e 22 31 f9 be 95 f6 e4 bf
       1.7867564 0.4810954 -0.48670298 -1.7887751
0002e0 d2 10 34 be 9a d8 e9 bf 3d 8c 12 3f 0f ac 62 be
       -0.17584541 -1.8269227 0.57245237 -0.22135948
0002f0 23 ac 76 bf 37 2b ff bd 96 34 15 c0 42 4e 0e 3f
       -0.9635641 -0.124594145 -2.3313346 0.5558816
000300 8b 81 6e bd c0 fd b3 3f 5f 6c 8b 3f c9 28 21 bf
       -0.05822901 1.4061813 1.0892447 -0.6295286
000310 92 b4 84 bf 74 78 cc 3d 33 b4 6e be d2 3d 1d 3e
       -1.0367606 0.09983912 -0.23310928 0.15355614
000320 d5 02 83 3f d2 39 eb 3e c2 ac 81 bf 65 00 ef be
       1.0235239 0.4594255 -1.0130847 -0.46679989
000330 f8 53 61 3f 20 6b 30 bf ce 57 af 3f 86 eb 6d be
       0.8801875 -0.6891346 1.3698671 -0.23234376
000340 1c 1a 47 bf 77 cd 0f c0 69 98 9d 3f 15 ad 0e be
       -0.77774215 -2.2469156 1.2312137 -0.13933213
000350 31 dc d6 bf 32 2d 12 bf e7 9b b8 bf 75 24 d0 be
       -1.6785947 -0.5710021 -1.4422578 -0.40652815
000360 07 89 88 c0 54 6d 46 3e 36 9f 2d 3f f5 e5 7c bf
       -4.266727 0.19377643 0.6782106 -0.98788387
000370 ca 15 0e bb 5c 60 0c bd 8f 48 71 bd 66 41 24 3f
       -0.0021680468 -0.034271583 -0.058907088 0.6416229
000380 65 d3 d3 be 62 39 05 40 0b 9d fd be 71 d3 0a be
       -0.4137222 2.0816274 -0.49533877 -0.13557221
000390 db a5 de be c3 e4 c0 3d 49 33 1e be 83 70 1f bf
       -0.43485913 0.09418633 -0.15449251 -0.62281054
0003a0 fc 50 14 3f 28 be de 3e dc 6d ff be 7d 7d 05 3f
       0.5793607 0.43504453 -0.49888504 0.52144605
0003b0 49 e3 20 c0 d5 8c 45 bf 1b 9f ca bd 9a 1d c3 3f
       -2.5138724 -0.7716802 -0.09893628 1.5243409
0003c0 74 d8 7b 3f a9 71 4f be 50 aa a4 3e 75 15 79 3f
       0.98377156 -0.20258202 0.32161188 0.97298366
0003d0 b7 1e 03 bd f5 81 3b bf 53 e1 0e 3d c4 3b 07 3f
       -0.032011714 -0.73245174 0.034882855 0.5282557
0003e0 fb 1d 1e 3f 39 88 2c 3f 47 e9 dc bd 0c 9e 78 bf
       0.61764497 0.6739536 -0.107866816 -0.9711616
0003f0 9d 3b e2 bd c9 bf 66 3e d9 b0 15 bd 37 77 3e 3f
       -0.110465266 0.22534098 -0.03654561 0.7440066

feature_extractor.weight f4 [32, 63, 3]
000000 16 76 3e 3d 2b 11 59 bd 1d 40 e9 3b 52 98 c6 bc
       0.046499334 -0.05299489 0.0071182386 -0.024242554
000010 37 b2 d8 3d 8a 61 17 3d 51 5e 0f bd aa a7 85 3d
       0.10580867 0.036958255 -0.035002057 0.0652612
000020 a6 73 90 3d c4 fa 81 bc e6 04 b6 3c 13 32 b8 3c
       0.07053308 -0.015866645 0.022219133 0.022484815
000030 0f b2 26 bd da 7a 73 bd 5e b5 09 bc ae 31 15 3d
       -0.040697154 -0.059443332 -0.008405058 0.03642433
000040 d9 ab a3 3c 02 8b eb bc d8 49 48 3d 71 7b 75 3c
       0.019979404 -0.028752808 0.048898548 0.014983044
000050 94 37 8d bd 6c 2f eb bc de e6 a4 bd f6 f7 78 bd
       -0.06895366 -0.028709136 -0.08051847 -0.06078335
000060 a0 b2 1a 3d 5e d6 ae bd 8f db 00 3d 10 9a 34 3d
       0.037768006 -0.08536981 0.031459387 0.044092238
000070 ae 84 39 3c 0c d1 f2 bc ff 3a 72 bd 49 79 06 bd
       0.011323137 -0.029640697 -0.059138294 -0.03283051
000080 1a ea dd bd 00 64 c2 bc 7c a6 d6 bd bb 0b 82 bd
       -0.10835667 -0.023729324 -0.10480973 -0.06349894
000090 a5 c6 5b 3d cf 51 db 3c 34 04 2a 3d 44 6c f1 3c
       0.05365624 0.026772408 0.041507915 0.02947057
0000a0 e9 05 55 3d af f2 41 bd 51 d9 51 bd e2 2d b8 bd
       0.05200759 -0.04735058 -0.05123264 -0.089931265
0000b0 68 a6 5b bd 36 22 64 3c 8f c8 61 bd c3 04 0e 3d
       -0.053625494 0.013924172 -0.05512291 0.03467251
0000c0 64 79 e9 bd f9 fa 79 bd 77 b1 ad bd 66 fa d0 bd
       -0.114001065 -0.06103036 -0.08481114 -0.1020401
0000d0 1c 1c 79 bd be 34 90 bd 0c e4 86 3d b0 db a6 3d
       -0.060817823 -0.0704131 0.06586465 0.08147371
0000e0 9c 37 21 bc ee 8c 93 bd e3 35 e0 bd 1f 46 e7 bb
       -0.009839918 -0.072046146 -0.10947778 -0.0070579196
0000f0 84 d6 b1 bd 1d 2c cf bd ed 2e f9 bd 90 e1 af 3d
       -0.08683494 -0.10115836 -0.121671535 0.085879445
000100 c5 07 dc bb 7c 57 04 bb 48 88 84 bd 86 b7 5a bd
       -0.0067147934 -0.0020193746 -0.06471306 -0.053397678
000110 77 4a ca bc fe bf f1 bd 10 5a 37 bc ed 0d 38 3c
       -0.02469371 -0.11804198 -0.011190906 0.011233789
000120 ce 85 08 bd 5f 9f 02 bd 02 e3 40 bd fd 05 61 bc
       -0.03333073 -0.03189027 -0.04709149 -0.013734338
000130 3b 2a ec bd 2c 35 65 bd 5d a6 2a bc 24 3f de bd
       -0.11531492 -0.05595891 -0.010415641 -0.10851887
000140 2d fb f6 bd 3c 0b 27 3d 65 3e 20 bd a5 64 3f 3d
       -0.12059627 0.0407822 -0.039122004 0.04672684
000150 77 e7 97 bd 63 f4 ec 3b 82 a8 ad 3b 77 6a 13 be
       -0.07417195 0.0072312816 0.0052996287 -0.14396082
000160 f0 5c db bd c2 19 02 be 27 c4 05 bd 5a 3c 92 3c
       -0.10711086 -0.12705138 -0.03265777 0.017851043
000170 4c 53 3c bd 85 55 e7 3c bf 97 57 bd 36 b5 51 3c
       -0.045977876 0.028239021 -0.05263495 0.012799552
000180 95 77 db bd c9 65 c9 bc d4 29 84 bc 85 98 79 bd
       -0.10716168 -0.024584668 -0.016133226 -0.06093647
000190 78 62 33 bd ea 89 7d bc da 37 b1 3c 42 43 82 3d
       -0.04379508 -0.015474776 0.021633077 0.06360485
0001a0 29 00 77 bd 59 f6 1d 3c 10 9f d1 bd e0 53 9d bd
       -0.060302887 0.009641253 -0.10235417 -0.076820135
0001b0 a4 b5 2a bd 1a f3 0c bb 12 66 c7 bd 0c b1 5e 3d
       -0.041677132 -0.0021507205 -0.09736265 0.054368064
0001c0 8d 64 80 bb a6 1b b0 bc b9 43 9d 3b ad 28 00 be
       -0.0039182366 -0.021497559 0.004799333 -0.12515517
0001d0 96 c8 ef bc 97 4d d6 3c 76 85 9e 3c 94 f7 90 bc
       -0.029270452 0.026160045 0.019350749 -0.01769618
0001e0 c8 3f 6b 3d be 89 35 bd fd 4c 75 bc 65 14 de bd
       0.057433873 -0.044320814 -0.014971969 -0.10843734
0001f0 4f a4 a6 bd 37 0c c5 bd 9e f1 40 bc e2 02 80 3d
       -0.08136808 -0.096214704 -0.011776356 0.0625055
000200 36 e5 45 3d 6a 20 cf 3c 28 bb 54 bc e1 20 86 bd
       0.048314296 0.02528401 -0.012984075 -0.0654924
000210 b1 ef ea bc 62 43 51 bd 1d 10 42 bd eb 29 50 3c
       -0.028678747 -0.051089652 -0.047378648 0.0127053065
000220 af 51 90 bd d7 a7 34 bd 95 0e 97 3d 2a 22 db bc
       -0.0704683 -0.044105377 0.07375828 -0.02674969
000230 4e 4d 76 bb c9 7c a9 bd 72 a2 56 bd ca 51 5a bd
       -0.0037582698 -0.08275754 -0.052401014 -0.053300656
000240 7a 24 9a bc 5c 18 ca bc 2b 64 2c 3d f0 1d 26 bc
       -0.018816222 -0.024669819 0.042087715 -0.010138974
000250 4b cc d5 3c b8 14 ea 3c 8b f9 f0 bd e2 55 a5 bd
       0.026098391 0.028574333 -0.117663465 -0.080730215
000260 99 a0 eb bd bc b5 8a 3d bb 46 8b 3d a4 b0 93 bd
       -0.11505241 0.06772944 0.068006 -0.07211426
000270 e3 2b f5 3b cc ec ce bc 79 0d 6a 3c d5 c8 d3 bd
       0.0074820383 -0.025259398 0.014285439 -0.1034104
000280 6d c2 c4 bd 75 38 c3 3b fd e3 6d bb e3 9f 8c 3c
       -0.09607396 0.005957658 -0.0036299222 0.017166084
000290 51 0a a8 bc aa e6 35 3d c2 bc a7 3d 91 93 29 bd
       -0.020512732 0.04440943 0.081902996 -0.041400496
0002a0 3f bf 22 bd 7b 48 47 3c 2d d8 27 bd 94 78 11 3d
       -0.039733168 0.012163277 -0.040977646 0.035515383
0002b0 62 bb 8b bd 6f b7 a4 bd 28 48 de 3d 1b 29 ea bb
       -0.0682285 -0.080428 0.108536065 -0.0071460134
0002c0 33 8e 25 3d 6a 5c 72 bc 79 0d 89 bd 9e 3f d2 bd
       0.040418815 -0.014792541 -0.06692023 -0.1026604
0002d0 02 ce ba bd b0 39 4a bd 52 90 74 3c 2b a1 49 3d
       -0.09121324 -0.04937142 0.014926987 0.049225967
0002e0 8e 2b cd 3b c9 7b 40 bd 7c 76 19 be b8 f5 e0 bd
       0.0062612956 -0.04699305 -0.14986604 -0.10984367
0002f0 27 05 c0 bd 2b c6 50 be 6d 94 4f bd 02 2d 0e be
       -0.09375983 -0.20388095 -0.05067866 -0.13884357
000300 6e be 1e 3d 17 4d 46 3d ff 88 94 3d 66 bc 4f 3d
       0.038755827 0.048413362 0.072526924 0.05071678
000310 89 b9 44 3d 8b b3 53 3d a3 78 28 bd b3 38 9f bd
       0.048028503 0.051684897 -0.041130673 -0.077744864
000320 e9 62 14 be 9d ac 87 3b 4a 39 a6 bc 51 64 bd 3d
       -0.14490856 0.00414045 -0.02029099 0.092476495
000330 1e 06 56 bc 22 78 85 3c 41 bb 77 bd 19 fb a3 bd
       -0.013062982 0.016292635 -0.060481314 -0.080068775
000340 4f 1b d2 3c 08 3c 03 3c de 15 95 bc 8a e8 6d 3d
       0.025647787 0.008009918 -0.018198904 0.058083095
000350 fc 2b 14 3c 15 b6 dd bd c4 cb 51 bb d0 39 ec bd
       0.00904369 -0.10825745 -0.0032012323 -0.11534464
000360 b3 e0 ec bc bb b4 5a bc aa 6f d1 bb 4c 23 dd 3c
       -0.028915739 -0.013348754 -0.006391485 0.02699437
000370 8a cc ea 3d 39 08 fc 3d 3b cf b7 bd 05 ba 6c bd
       0.11464794 0.12306256 -0.08975073 -0.05779459
000380 7f 42 da bd 21 68 5b bd 5e 90 59 bd f3 63 62 bc
       -0.106572144 -0.053566102 -0.053116195 -0.013817775
000390 65 60 99 3d bc f6 cf 3d 8f 8e 12 3c 28 a9 2e bd
       0.07489089 0.10154483 0.008945121 -0.04264179
0003a0 8a 90 fd bd 05 30 76 bd 5e e1 37 bd ea 59 b9 bd
       -0.12381084 -0.06010439 -0.04489266 -0.09050353
0003b0 12 f0 b8 3c 95 65 b1 3d a4 29 52 3d 2b f1 e5 3d
       0.022575412 0.08661953 0.051309243 0.1122764
0003c0 24 76 7d bd 0c 98 2d 3c 51 28 58 3d 0d e8 7c 3c
       -0.061880246 0.010595333 0.052772824 0.015436185
0003d0 0f c4 80 3b 51 c9 86 bc 70 24 d7 bc d8 86 65 3d
       0.003929622 -0.016453417 -0.026262492 0.0560368
0003e0 7e 9d bb 3c 0d 09 9b bb 56 01 80 bd 01 c7 93 bd
       0.022902247 -0.0047313035 -0.06250255 -0.07215691
0003f0 63 c8 43 bd c6 07 02 bc 33 c9 25 3d 6d d5 3c bd
       -0.047798526 -0.007936424 0.04047508 -0.046101976

feature_extractor.bias f4 [32]
000000 85 0d 8b 3d fd f0 d6 3d 30 a7 37 bd ce 33 e4 bd
       0.06789688 0.104951836 -0.044837177 -0.111426935
000010 5b 5f d3 bd fc d1 b1 bd ae d8 05 bd 24 a1 0d be
       -0.10320922 -0.086826295 -0.032677345 -0.13831002
000020 42 6d ad 3d a9 f7 11 bd 76 d5 62 bc 92 84 cf bb
       0.08468105 -0.035636578 -0.013844838 -0.0063329423
000030 94 be 2b 3d e8 f0 e3 3c 40 a3 bd 3d 46 3d 4d 3d
       0.041929796 0.027824834 0.09259653 0.050107263
000040 b7 d6 5e 3d 35 04 cb bd 7e 97 a4 bd ae 87 df bc
       0.054403987 -0.09912912 -0.08036707 -0.027286377
000050 ae 5d 86 3d 32 e2 a9 3d 96 5f c2 bc 07 a3 29 bd
       0.06560837 0.082950965 -0.02372722 -0.04141524
000060 47 0b 62 bd 7f 1f 23 bd 79 0c 10 bd 49 25 34 3d
       -0.055186536 -0.03982496 -0.035168145 0.04398087
000070 81 b8 a6 bd b0 a7 7f 3d 7e 34 87 3d 33 d8 94 3d
       -0.0814066 0.06241578 0.06601809 0.07267799

transformer.layers.0.self_attn.in_proj_weight f4 [96, 32]
000000 82 b1 5c 3c 3b 31 13 be 5c d7 20 be 13 1b 20 be
       0.013470056 -0.14374249 -0.15707153 -0.15635328
000010 7e cc 10 3d a9 06 8d 3c 1c 6e fb bd 6b 58 0c bd
       0.03535127 0.01721509 -0.12276861 -0.03426401
000020 ee 69 0e be 74 80 1f bd 20 bb ce bd 26 d7 bd bd
       -0.13907596 -0.03894086 -0.10094285 -0.09269552
000030 4a 2c a3 3d d6 db 6a be e0 58 08 3e d6 cb f4 3d
       0.07967432 -0.22935423 0.13315153 0.11952941
000040 42 75 51 be c1 76 05 bd 9c d4 66 be 5c cb 07 3d
       -0.20454887 -0.032583956 -0.22542042 0.033152923
000050 96 d8 aa bd ad d4 24 bd 20 05 5c be 1a 9f a4 bd
       -0.08342092 -0.040241886 -0.2148633 -0.08038159
000060 ed 50 30 bd f7 3e 9c bd 1b 21 12 3e 73 97 5c bd
       -0.043045927 -0.07629197 0.14270441 -0.05385537
000070 a1 1a 1b 3e 08 97 f1 3c 43 f9 0a 3e ec 5d 6d 3e
       0.15146877 0.029490963 0.13571648 0.2318036
000080 b6 4a 0a be ac de 03 bc 71 31 98 bd 67 dc 3b 3e
       -0.13505062 -0.008048695 -0.07431305 0.18345796
000090 04 be 14 3e 41 bf 7b 3e 8f ee 8c 3d fc 00 86 3e
       0.1452561 0.24584676 0.06881439 0.26172626
0000a0 9d d2 f3 bd 98 4a 5c 3e 8b 42 c7 3d 9f 01 51 bd
       -0.11905406 0.2151283 0.09729489 -0.051026937
0000b0 98 58 32 be 8c 42 99 3d b8 c1 d4 bd 6b 4a a8 3c
       -0.17416608 0.07483396 -0.103885114 0.020543298
0000c0 c3 cb ea 3d c2 5e c8 3d 66 43 80 3e 1f e3 89 be
       0.11464646 0.097836986 0.2505142 -0.26931092
0000d0 a9 7f 88 bd 8c a1 96 3c ad db 27 3d 56 3d 35 bd
       -0.06664974 0.018387578 0.040980984 -0.044247948
0000e0 41 8a 13 3e e3 6c 2a 3e ef 6c 10 be ed e9 6a 3e
       0.14408208 0.166431 -0.14104055 0.22940798
0000f0 1f c7 a7 3c 31 1c d9 bd cf bb 1d be 22 8d 92 be
       0.02048069 -0.1060108 -0.15403675 -0.286233
000100 41 aa 8d 3d 11 c3 36 be f7 24 01 3e 84 c7 58 bc
       0.06917239 -0.1784785 0.12611757 -0.013231162
000110 1b 94 a7 bd fb 01 ee 3c 20 2c 89 bd 98 af 36 bd
       -0.08182546 0.029053679 -0.06697869 -0.044601053
000120 39 13 eb 3d 82 05 9a 3d fa 78 2e 3c 32 d9 f7 bd
       0.11478276 0.07520582 0.01064896 -0.121019736
000130 b1 85 f3 3a d5 d5 ce 3d 9a fc 86 be 6c 50 40 be
       0.0018579272 0.10099379 -0.26364595 -0.18780679
000140 8e fa 52 be 0d 0a 83 3d 31 10 1b 3e d1 73 0f bc
       -0.20603392 0.063984014 0.15142895 -0.00875564
000150 f4 97 c4 bd c5 9f 6f be f2 52 7f bd d9 ec 64 3e
       -0.09599295 -0.23400791 -0.062334962 0.22355975
000160 40 56 bd bd 42 74 5c 3d 04 b8 5b 3c 1a 31 be bc
       -0.092449665 0.05382181 0.013410572 -0.023216773
000170 3a f1 36 3d ee 4f d8 bd 91 57 f0 bd 2f ea a5 3d
       0.044663645 -0.105621204 -0.11735452 0.081013076
000180 7b 15 97 3e 54 be 06 3e 24 b7 a8 bd 9d 08 44 be
       0.29508576 0.13158542 -0.08238056 -0.1914391
000190 f0 8a ed bc 16 76 1f be c8 e4 4a be cd 76 9b bd
       -0.028996915 -0.1557239 -0.19813836 -0.07591019
0001a0 f4 be d7 bd 9f 5d 62 be 58 a4 a0 3c 64 b9 e1 3d
       -0.10534468 -0.22106026 0.019609615 0.110216886
0001b0 8e 65 bb 3d 92 99 62 3e 3a 29 c1 bb fa 2b aa be
       0.091502294 0.22128895 -0.005894807 -0.33236676
0001c0 d3 a5 d2 3b 5d 27 f6 bc d1 16 58 be 4a 02 e5 3d
       0.006428459 -0.030048067 -0.21102454 0.11182077
0001d0 80 f8 da 3d 12 d2 7e be 75 fa 15 3e eb 1d a3 3d
       0.10691929 -0.24884823 0.14646323 0.07964691
0001e0 10 d5 98 bd 91 5e 53 3d 34 5f 85 3e 20 f7 f6 bc
       -0.074625134 0.051603857 0.26049197 -0.030147135
0001f0 82 89 db 3d 13 a6 b3 bd 7f 1d 1b be d7 c3 19 3d
       0.10719587 -0.087719105 -0.1514797 0.037540283
000200 16 d5 e7 bb e4 86 61 bd 62 99 4b 3e a9 93 2f 3e
       -0.0070749624 -0.055060282 0.1988273 0.17146172
000210 d1 53 60 3e 0e df 8c 3c 94 2f 33 3e ba b7 1a bc
       0.21906973 0.017196205 0.17498618 -0.009443218
000220 69 56 ca 3d bd 36 0f be d6 a9 81 3c 09 a4 02 be
       0.09879763 -0.13985725 0.015828054 -0.12757887
000230 59 37 33 be 67 31 b4 3d 65 6a c2 bd 1e 96 88 bb
       -0.17501582 0.08798485 -0.094929494 -0.004168286
000240 bd 7d 41 bd b9 47 24 be df 4b 6b bd a9 92 2a be
       -0.047239054 -0.16042985 -0.057445403 -0.16657509
000250 b4 e5 d4 bc 45 73 f8 bc a8 09 26 be f1 07 03 3e
       -0.025988437 -0.030328402 -0.16214621 0.12795998
000260 42 8c 5f 3d f8 73 1d bd d6 6d 83 3d 93 8b 3f 3e
       0.05457712 -0.038440675 0.06417434 0.18705587
000270 80 55 71 be c4 a1 89 be c3 26 0a be a3 dd 71 be
       -0.23567772 -0.2688123 -0.13491349 -0.23619704
000280 75 f5 62 bd 4e a0 ed bd 88 b3 88 3e 45 b2 3d 3e
       -0.055409867 -0.11602841 0.2669947 0.18525036
000290 ee a1 1b 3e a3 fa b5 3d 8d 31 08 3e 5b 16 90 3c
       0.1519849 0.08885696 0.13300152 0.017588785
0002a0 d8 ce cc bd 16 b1 05 ba 58 38 df bd 63 67 10 be
       -0.1000039 -0.0005099935 -0.108994186 -0.14101939
0002b0 f1 8e 4e be 93 37 cd bd 68 09 26 be c4 08 7f 3d
       -0.20171715 -0.100203656 -0.16214526 0.06226422
0002c0 bb c3 7c be 89 0a 73 3e 7e 77 a8 bd 79 c1 00 3d
       -0.2468404 0.23734488 -0.08225916 0.03143451
0002d0 4e b7 f7 bc ad 9c 86 bd a8 53 e4 bd e6 93 39 3d
       -0.030238774 -0.06572852 -0.11148769 0.045307063
0002e0 eb f1 9b 3d 8c 73 e6 3d 40 36 8b bd 80 5b aa 3d
       0.076145016 0.112525076 -0.06797457 0.083182335
0002f0 ab aa fa 3c 99 51 e4 bd 58 83 58 3d 0f f2 53 be
       0.030598959 -0.11148376 0.052859634 -0.20697807
000300 40 c5 92 3e 78 ae 26 3e 82 ee 34 be d6 44 2b be
       0.28666115 0.16277492 -0.17669109 -0.16725478
000310 cb de 70 be 56 c8 12 be 4b eb 3e 3e d2 3a 44 be
       -0.23522489 -0.14334235 0.18644445 -0.19163063
000320 a2 a3 81 3e 1d 29 67 be d8 59 6d bd d5 65 84 3d
       0.25320154 -0.22574277 -0.05794701 0.064647354
000330 9c 69 2b 3e c6 a6 50 bd 7d 97 5f 3e f7 61 09 be
       0.16739506 -0.050940298 0.21835132 -0.13416277
000340 b0 db 20 3e 2b b2 07 be 4e 3b 8b 3d bd ea 49 3e
       0.15708804 -0.1325156 0.06798421 0.19718452
000350 2b 4a 17 3e a0 98 17 3d 2c 13 df bd e2 cd 0d 3e
       0.14774387 0.03701079 -0.108923286 0.1384807
000360 d4 97 88 bd e3 99 5d be 2b 85 a3 bb 3f 09 a9 3d
       -0.06669584 -0.21640734 -0.00499024 0.08253717
000370 43 0c ed bd 37 d3 6a 3d db 60 63 be 92 ec d6 3d
       -0.11574604 0.057330336 -0.22204916 0.10494341
000380 87 c3 02 3e 9d 4c 37 3e 71 bf 5a bc 9b aa 93 ba
       0.127699 0.1790032 -0.013351307 -0.0011266054
000390 8e 3d 27 bc aa d5 3f 3e ad e5 17 3d e0 fb 02 bd
       -0.010207547 0.1873385 0.03708427 -0.031978488
0003a0 d3 94 33 3e 49 48 a5 3d f1 9b 28 be ad 56 54 3d
       0.1753724 0.08070428 -0.16465737 0.051840473
0003b0 04 6c 68 be 39 fc 13 be c6 6f 5c bc 95 67 f3 bd
       -0.22697455 -0.14451684 -0.013454383 -0.11884991
0003c0 d4 8b 87 3d 98 62 be bd 62 11 4d be 64 db 78 be
       0.06618467 -0.09296149 -0.20026162 -0.24302441
0003d0 ca 41 1e 3c 97 97 0d bc 56 03 1e bd 1e 7f 1a be
       0.00965924 -0.008642099 -0.0385774 -0.15087554
0003e0 6b a9 04 be 84 1e e5 3c 84 05 50 be 66 9f 30 3e
       -0.12955253 0.027968653 -0.20314604 0.17248306
0003f0 19 e9 5a be 8d fc f9 bd 38 ed 07 be 37 c9 3b 3e
       -0.21377982 -0.12206373 -0.13274086 0.18338476

transformer.layers.0.self_attn.in_proj_bias f4 [96]
000000 10 2c d5 3d bb a0 37 be a8 0d 3f bd d2 6f ab 3d
       0.10408795 -0.17932408 -0.046643883 0.083709374
000010 3d 06 d9 bd 80 df 2c be c6 fb 24 3e c1 74 bc bb
       -0.10596893 -0.16882133 0.16111669 -0.005751223
000020 c4 69 a8 bd fd 6c 64 bd 88 a2 c2 bc 41 d5 53 bc
       -0.08223298 -0.055768 -0.023759142 -0.012929262
000030 d0 b4 9a bd 37 db 8d bd 28 ee ba 3d eb 45 5a bd
       -0.075540185 -0.069265775 0.09127456 -0.053289335
000040 f5 c5 20 bd e8 9b 1a 3a 85 9e ad bd 4a 4f c2 3d
       -0.039251287 0.00058978656 -0.08477501 0.094877794
000050 7f 7f e2 3d ae e4 2f bd e2 73 9a 3d a7 35 99 bd
       0.11059474 -0.042942695 0.07541634 -0.074809365
000060 4d c5 1a 3b 1e a7 b3 bd ad 32 a2 3d 25 b4 77 bd
       0.0023616136 -0.087721094 0.07919822 -0.060474534
000070 81 6f 03 3e 62 7d c4 3d fe ea 86 ba 8b d2 cc 3d
       0.12835504 0.095942274 -0.0010293422 0.100010954
000080 02 d7 1c b8 4c 6b 43 3b 59 16 f5 ba a2 2e 92 bb
       -3.739354e-05 0.0029818593 -0.0018698677 -0.0044611255
000090 4c 23 0d b9 9e b2 21 3a 02 50 c0 ba 3a bb 92 ba
       -0.00013459957 0.00061682786 -0.0014672282 -0.0011194714
0000a0 4f 66 9c ba 0a c6 43 3b d1 84 c9 b9 ee 07 5e 3b
       -0.0011932346 0.002987268 -0.00038436663 0.0033879238
0000b0 97 91 e3 ba 0f 93 8b 3b 65 e3 b3 39 10 3d 93 3b
       -0.0017362115 0.004259474 0.00034310963 0.004493363
0000c0 f8 b2 44 3b ad 2d 8f 3a 15 39 70 ba a4 f9 e1 b7
       0.00300139 0.0010923647 -0.00091637793 -2.6938338e-05
0000d0 c4 6d 96 b8 2f 9c 30 ba 90 3d 9f 3a 1b df 27 3b
       -7.173003e-05 -0.00067371404 0.0012149084 0.002561516
0000e0 7c 5e 96 bb d4 70 3c ba 51 6b 9c b9 eb 6a 4a b9
       -0.0045889 -0.00071884436 -0.00029834596 -0.00019304051
0000f0 1c b1 f5 3a cd 4e 40 bb fe b5 c1 ba d8 0d 48 ba
       0.0018744799 -0.0029343844 -0.0014778969 -0.00076314574
000100 31 aa 87 bb c0 93 2c 3d 24 12 c5 bc 5b c0 16 3d
       -0.0041401614 0.042133093 -0.024056502 0.03680454
000110 05 31 9b bc 0d 86 0e b8 4d ef f4 3b cb 81 96 3c
       -0.018944273 -3.3980283e-05 0.007474816 0.018372437
000120 56 aa cb 3c 13 ad db bc 2d 18 7f bc a6 61 d8 bc
       0.024861496 -0.026815927 -0.015569729 -0.02641375
000130 39 8f 4f bc c9 bc 11 bd 6f ec 50 3d 45 53 6e 3c
       -0.012668424 -0.03558043 0.05100673 0.01454622
000140 00 6d a2 bb 5e 9e ed 3c 1e 5c 03 3d 6f eb 3e bd
       -0.0049568415 0.02900618 0.03207027 -0.046611246
000150 75 9b 35 3c b1 0a b9 3c 4c 66 35 bd b5 dd 53 3c
       0.011084427 0.022588106 -0.04428701 0.012931277
000160 71 8f 18 3d 0b 55 88 bc 23 39 8e ba 14 fc 60 bc
       0.03724617 -0.016642114 -0.0010850768 -0.013731975
000170 fd f9 e9 3c 63 d9 94 bc 11 b8 db 3c 7f 73 46 3d
       0.028561587 -0.018170064 0.026821168 0.04844999

transformer.layers.0.self_attn.out_proj.weight f4 [32, 32]
000000 d6 e7 2f 3d 86 f2 4e 3e 95 22 f7 3d 93 9d 99 3d
       0.042945705 0.20209703 0.12067143 0.07500758
000010 72 b2 52 be 39 42 0a be b7 ff 78 3d 72 3a bc bc
       -0.20575884 -0.13501824 0.060790744 -0.022977088
000020 1c 4b 51 3e 72 22 9f bd 69 d9 1a 3e 4f c2 3b bc
       0.20438808 -0.07770242 0.15121998 -0.011459901
000030 5b f2 23 be 0c ee bc 3d 5c e3 5d be f6 e0 8e 3d
       -0.1601042 0.09225091 -0.21668762 0.06976502
000040 69 a1 6b 3b 00 68 6f 3d 1b b3 ae 3d 1a 47 bc bd
       0.0035954362 0.05844879 0.085302554 -0.09193249
000050 67 ee 10 3e 69 cc c9 3d f4 4d 01 be aa 05 16 be
       0.14153443 0.09853441 -0.12627393 -0.14650598
000060 d3 af 18 be 6e e9 38 3d d3 63 b7 3d f6 f8 12 3e
       -0.14910822 0.04514449 0.08954587 0.14352784
000070 b8 36 15 bd d2 d8 1f 3e 20 ae 24 be f4 29 c2 bd
       -0.036429137 0.15610054 -0.16082048 -0.09480658
000080 78 f5 c6 bd a9 0f 04 be 6d 67 92 bd b0 d5 32 3e
       -0.09714788 -0.12896599 -0.07148633 0.17464328
000090 8f 18 14 bd 8e 36 ae 3d c6 c2 04 be 26 17 62 3d
       -0.036156233 0.08506499 -0.12964925 0.055197857
0000a0 6a 42 71 3e 4c 35 48 be 5b 61 64 3e c2 b3 a1 3d
       0.23560491 -0.19551581 0.22302763 0.07895614
0000b0 38 2f 03 be a7 bb 36 bc b0 b3 7f 3c ff a4 25 bd
       -0.12810981 -0.011153138 0.015606806 -0.040440556
0000c0 ea 4e d2 bd cc 1f 21 3e de 0e 2d 3e 7c 4b ac bd
       -0.10268958 0.15734786 0.16900203 -0.08412835
0000d0 e5 d1 c8 3d 1b 77 16 be a5 4c 81 be e1 d7 d9 3c
       0.09805659 -0.14693873 -0.25253788 0.026592197
0000e0 f6 1d 0f 3e 8d 16 84 bd 10 49 d0 bd 7e 1c 99 3d
       0.13976273 -0.06449614 -0.101701856 0.074761376
0000f0 e7 a5 43 3d 0b f1 4f bd 40 66 c9 bd d2 4b 81 bd
       0.04776564 -0.050766986 -0.09833956 -0.0631329
000100 0b b0 5a bd 30 b4 1f be 24 c7 49 be fa 7f 4d 3c
       -0.053390544 -0.1559608 -0.19704872 0.012542719
000110 11 0a 91 3d 12 d1 03 be 32 e5 5d be 70 ca f6 3c
       0.07081998 -0.12872723 -0.21669462 0.030125827
000120 6e 92 9d bd e8 be c0 bd 41 9c 24 be bc 97 13 be
       -0.07693945 -0.094114125 -0.16075231 -0.14413351
000130 96 5e 86 3d 0e 57 29 be 7b 30 9e bd 8c 30 66 3d
       0.065610096 -0.16537115 -0.07724091 0.05619864
000140 6a d8 ea bd 69 5c ce bc e9 cc 2f 3e a5 9d b3 bd
       -0.11467059 -0.025190549 0.17168011 -0.08770303
000150 b2 8f 35 bd a2 b7 33 3e 3e 1c a1 bd b8 b7 07 3e
       -0.04432649 0.17550519 -0.07866715 0.13253677
000160 ed 1c 22 3e 55 d0 b8 3d 79 f8 03 be 6c 80 b4 bd
       0.15831347 0.09024111 -0.12887754 -0.08813557
000170 6e 93 e0 3d 48 e1 35 be 18 43 c1 bd 7c 04 5d 3e
       0.1096562 -0.17761719 -0.09436625 0.21583742
000180 5f 4c 65 bc 8f 5f d6 bd 35 f3 c1 3c 03 fe 06 3d
       -0.013995259 -0.10467445 0.02367554 0.03295709
000190 ea d6 a6 3c 50 52 3c 3e 12 92 e0 3d 75 f4 20 3d
       0.02036615 0.18390775 0.10965361 0.039295632
0001a0 ca 53 03 3e e8 f5 29 3d 19 04 b1 3c d9 be 30 3e
       0.12824932 0.04149428 0.0216084 0.17260303
0001b0 76 fa 07 3e 59 25 00 3e 8e 36 28 3d 90 5f bc bd
       0.13279137 0.12514247 0.041067652 -0.091979146
0001c0 a9 88 2d be 5f f8 f6 3b 69 2d 9c bd 00 c1 92 3d
       -0.16946663 0.0075369324 -0.07625849 0.07165718
0001d0 9b ce 22 3e f9 4f 0a be e2 74 27 3e 7e 95 c7 3d
       0.15899126 -0.1350707 0.16353181 0.0974531
0001e0 53 f8 0e 3d 08 20 61 bd 63 22 15 3e 9a df 1e 3e
       0.03490479 -0.054962188 0.14563899 0.15514985
0001f0 79 66 4d be cf 8d 09 bd 0d 3e 81 bd 34 3f 57 be
       -0.20058621 -0.033582505 -0.06310663 -0.21020204
000200 2d 61 34 be 0c 14 14 3e 9d e4 43 3d 87 9e 34 3e
       -0.17615195 0.14460772 0.047825444 0.17638598
000210 8d f5 1f be 4e 87 0b be 38 3c 1b bd 71 76 10 3e
       -0.15621014 -0.13625833 -0.037899226 0.14107682
000220 dc 37 05 be 1d f1 10 bd 15 34 8b 3d 1f 3c 2c 3c
       -0.1300959 -0.035386194 0.06797043 0.010512381
000230 3b 7b 13 3e e7 c3 a5 bd f5 33 21 3e c8 6d d8 3d
       0.14402477 -0.08094006 0.15742476 0.10567814
000240 6b 55 93 3d 43 4e 5a 3e 4f 7c 04 bd 13 40 7c bd
       0.071940266 0.21318917 -0.032345112 -0.061584543
000250 ea a8 ce bd ce a1 07 be 85 60 a5 bc 86 2e 90 bd
       -0.100908116 -0.13245317 -0.020187626 -0.07040124
000260 69 bd 4b bd 51 85 db 3d 11 7c b5 bc b9 4e 1a be
       -0.049741182 0.107187875 -0.022153886 -0.15069093
000270 f3 2d 1b 3e b6 9f 94 bd 74 64 05 3e 6f bf 21 3d
       0.15154247 -0.07257025 0.13026601 0.039489206
000280 a5 a6 4a 3e 57 04 dc 3c 0e 80 c9 bc 12 dd 11 3e
       0.19790132 0.026857538 -0.024597194 0.14244488
000290 ba da a0 3a e6 5e 16 bd 12 02 06 3e 02 be da bd
       0.0012272217 -0.036711596 0.13086727 -0.10680772
0002a0 a6 7f 16 3e 7e f6 ac 3d 75 de 26 bc d9 b8 3c be
       0.14697132 0.08445452 -0.010184874 -0.18429889
0002b0 28 c7 e9 3d 90 5c 2d 3d ad 2c 1e be 5f 4a c0 3d
       0.11414939 0.042324603 -0.1544673 0.09389185
0002c0 69 2d 20 3d 4e ec 4e 3d e3 7b a9 bd a6 20 15 3e
       0.039105806 0.050518326 -0.08275583 0.14563236
0002d0 03 20 03 be 4c 9a 22 be 6d ff 11 3d 8a 9e 00 be
       -0.1280518 -0.15879172 0.035643984 -0.12560478
0002e0 5b e3 c5 bd a5 a5 29 3e 1d b7 64 bd 14 6b 0a 3e
       -0.09662505 0.16567095 -0.055838693 0.1351741
0002f0 f5 08 40 be 6d 2d ee 3d 02 0e 65 be ff c2 33 3d
       -0.18753417 0.11629758 -0.22368625 0.043887135
000300 8c 31 09 bd 9a b0 e3 3c 67 d8 14 3e 29 17 37 bc
       -0.033494517 0.027794171 0.14535676 -0.011174955
000310 7f cd ca bc ff 27 ac 3d ff 34 e7 3d 01 33 ab bd
       -0.024756191 0.08406066 0.11289405 -0.083593376
000320 d1 fc 61 3e b0 75 c4 bc f2 da 26 be 42 02 6d bc
       0.22069098 -0.023981899 -0.16294459 -0.01446587
000330 4e 40 e5 3d 9b 85 16 be 45 c8 c7 3d 99 da 2d 3e
       0.11193906 -0.14699404 0.09754995 0.1697792
000340 21 a0 95 3c b3 4a 43 bc 46 a3 30 bd 4c a7 16 be
       0.018264832 -0.011919665 -0.04312446 -0.14712256
000350 5e 59 9c bd da f4 83 3c cb fe 38 3e 67 27 e8 3d
       -0.07634233 0.016107965 0.18065946 0.113356404
000360 58 fb 4d be 4c 38 59 3e 06 47 de 3d e9 63 07 3c
       -0.20115411 0.21212882 0.108533904 0.0082635665
000370 87 fb 43 be 0d 5e 61 3e 8c ca 13 bc eb 1a 1f bd
       -0.19138919 0.22008534 -0.009020459 -0.03884403
000380 8f 43 ea 3d 14 e0 a2 3d 9b 25 86 3d 54 b1 89 3d
       0.11438667 0.07952896 0.065501414 0.06723276
000390 6b 34 1e be 4b 23 d8 bd 16 2d 40 3e e8 07 f4 3d
       -0.15449683 -0.105536066 0.18767199 0.119155705
0003a0 34 39 19 bc e2 e5 39 3e 77 4f 4d be 5f 16 b8 3d
       -0.009352017 0.181541 -0.20049845 0.08988642
0003b0 75 00 30 3e 5e 05 25 3d d8 fc c3 bd e3 18 b0 bd
       0.17187674 0.04028832 -0.095697105 -0.08598497
0003c0 d1 9d b9 bd 63 f5 02 bd 52 fe 09 3d ff d3 c7 3d
       -0.09063304 -0.0319723 0.033689804 0.09757232
0003d0 8e a5 cd 3d 62 d7 d4 3d 75 25 08 3e 2c b1 08 3e
       0.10041343 0.103926435 0.13295539 0.13348836
0003e0 01 bd 40 3d 11 bd 02 be 88 37 dd 3d 9a 08 82 3d
       0.04705525 -0.12767436 0.10801607 0.06349297
0003f0 dd e3 22 3e 8d 40 68 bd 94 f0 a5 bd 37 f8 3c be
       0.15907235 -0.056702185 -0.08102527 -0.18454061

transformer.layers.0.self_attn.out_proj.bias f4 [32]
000000 24 46 6c 3c 43 f6 1c 3d 9e 8e fc 3c 98 22 e1 bc
       0.01442102 0.03832079 0.030829724 -0.027482316
000010 62 90 2f bb 04 18 c8 bc 57 31 b3 bc 94 bf 16 bd
       -0.002678894 -0.024425514 -0.021874113 -0.036803797
000020 12 19 eb b9 ff 03 87 3c b7 9d 2f bc ea 9d a1 3b
       -0.00044841372 0.016481398 -0.0107187545 0.004932155
000030 d2 8c 7c 3c fa b5 e0 bb 6f 7d 16 3d 3f e9 02 3d
       0.015414434 -0.006857631 0.036740717 0.031960722
000040 e6 c8 e6 bb 7e 69 02 bd ef 81 41 bc a5 1f b8 3c
       -0.007042992 -0.031838886 -0.011810764 0.022476027
000050 17 02 bb 3a c8 7a 9a 3c 2a 4e cc bc e7 b2 84 bc
       0.0014267591 0.018857375 -0.024939615 -0.016198589
000060 68 ce e8 3c e3 b2 d0 3c e6 8e 2f bd 92 2e fe bc
       0.028418735 0.025475925 -0.042860888 -0.031028066
000070 00 ae cd 3b 85 0c 70 3c 09 f1 ff 3c ed 7e bd bc
       0.006276846 0.014651422 0.031242864 -0.023131812

transformer.layers.0.linear1.weight f4 [64, 32]
000000 41 76 d2 3c 47 57 3e be 50 b2 e4 3c 35 9d 39 be
       0.025691153 -0.18587981 0.027917057 -0.18126376
000010 38 24 90 3c d5 e2 5e 3c ea f3 15 be 71 a8 fe 3b
       0.017595395 0.013603886 -0.14643827 0.0077715446
000020 81 b6 06 be 69 52 02 bd 48 62 b9 bd 34 ea 09 be
       -0.13155557 -0.031816874 -0.09051949 -0.13468248
000030 92 af c8 3d a4 24 d8 bc 68 77 ca bd fc ee 60 3c
       0.097991124 -0.02638466 -0.09886056 0.013728853
000040 f0 71 e7 bd a4 96 05 bb ae 3e 67 bd 09 88 6b 3d
       -0.11301029 -0.0020383978 -0.05645626 0.05750278
000050 c8 f0 83 3a c7 8a 18 be 1d f1 16 bd 06 c1 54 3e
       0.0010066265 -0.1489669 -0.036851037 0.20776758
000060 a2 09 2a be 31 7d ec bd c2 61 6a bc d6 80 15 be
       -0.16605237 -0.11547316 -0.014305534 -0.14599928
000070 54 47 2f bd b8 59 20 3e d9 77 ac bd d6 2a 8d ba
       -0.042792633 0.15659225 -0.084212966 -0.0010770212
000080 c2 5c 7a be 83 cf 3e be 75 7e 18 3e c8 95 27 3e
       -0.24449447 -0.18633847 0.1489199 0.16365731
000090 3a b1 fa 3d 85 15 19 3e 42 ed df 3d b0 77 21 3d
       0.122408345 0.14949615 0.10933925 0.039420784
0000a0 69 74 07 be ad 11 24 bd 1d 06 c2 bd a2 1b be bd
       -0.13228 -0.04005592 -0.09473822 -0.09282614
0000b0 1b 5b 78 bd 70 07 d8 3d ee 6f 09 be 36 b6 58 3b
       -0.06063376 0.105482936 -0.13421604 0.003306759
0000c0 58 8d 15 3e f1 50 15 3e 9e 9d 4c 3e a9 e3 b0 bc
       0.146047 0.14581658 0.19982001 -0.021592932
0000d0 49 ae 65 bc 90 17 ab 3d a2 c9 71 3d ec ea 3d 3e
       -0.014018604 0.083541036 0.059030183 0.18546647
0000e0 7b 37 06 3d 01 de b7 3d e4 a6 25 be c8 50 4c bd
       0.032767754 0.08977891 -0.16176945 -0.049881727
0000f0 ba f3 8d 3c fe 90 cc 3d 58 ae 45 be 1f 9f 5c bd
       0.017328132 0.099885926 -0.19304788 -0.053862687
000100 79 f2 ea 3c 96 6e 64 3e 52 82 14 3e e8 d5 3b bc
       0.028680073 0.2230781 0.14502838 -0.011464573
000110 39 9f f3 bd 32 a4 af bd 8f 0b 4f 3d cf 06 06 be
       -0.11895604 -0.0857624 0.050548133 -0.13088535
000120 59 51 bc bd 1d 4f 79 3d 91 a7 7f bd fb fd 72 3d
       -0.09195203 0.060866464 -0.062415663 0.059324246
000130 e8 57 0a 3e 94 35 16 be b0 ca 37 3e 34 f5 39 3c
       0.13510096 -0.14668876 0.17948413 0.011349965
000140 8b c7 21 3e ee 7c f8 3d f7 3f d2 bd 07 57 10 3d
       0.15798776 0.121332034 -0.102661066 0.035239246
000150 3d 48 94 bd 71 fe eb 3d 65 48 0d be 48 62 93 bd
       -0.07240341 0.1152314 -0.13797148 -0.0719648
000160 68 bd c7 3d a3 ab c0 bd de 03 d6 3c 41 77 31 be
       0.09752923 -0.09407737 0.02612489 -0.17330648
000170 29 97 20 be a1 52 25 3e 6f 9d 3c bb 81 0c ba bd
       -0.15682663 0.16144802 -0.0028780361 -0.09084416
000180 03 b5 ab 3d a3 be c9 3c f9 08 0a 3e f1 be 42 3c
       0.083841346 0.024627035 0.13479985 0.011886344
000190 96 05 11 be 8d ba ac bd 6c b5 2f bc 33 3d c9 3d
       -0.14162287 -0.08434019 -0.010724407 0.09826126
0001a0 1d 0d 5e be 90 61 a8 bc fa de 78 3e 41 0c db bd
       -0.2168469 -0.020554334 0.24303809 -0.106956966
0001b0 45 46 b5 bb a1 64 c3 bd aa af a6 bd db f8 31 be
       -0.0055320584 -0.09540678 -0.08138974 -0.17380087
0001c0 14 c1 08 be 31 9a aa 3d 02 ba 82 3b 78 8c 47 be
       -0.13354903 0.08330191 0.003989459 -0.19487178
0001d0 37 da 8f 3c 9e 58 d6 bd 68 df fd 3b 9f 8e 25 3e
       0.017560108 -0.10466121 0.0077475794 0.16167687
0001e0 12 28 47 bb 25 70 e0 3d 06 f3 ac 3d 3e 60 dc bd
       -0.0030388874 0.1095889 0.084447905 -0.10760544
0001f0 8f c6 e1 bc 72 57 2d 3c 6d af 4e 3d d6 5e ca 3d
       -0.0275605 0.010579931 0.050460268 0.0988137
000200 43 d0 9e bd 9a a4 91 3c 29 09 7f 3d f7 40 45 be
       -0.077545665 0.017778683 0.062264595 -0.19263063
000210 ef 84 04 3d 9d c1 1b 3c 22 7e 5a bd 6f e8 1c 3d
       0.032353338 0.00950661 -0.053342946 0.038307603
000220 4e de fa 3b e4 c4 06 bd b5 d4 d0 3b 83 13 02 bd
       0.0076558953 -0.032902613 0.006373013 -0.03175689
000230 37 78 5a be 2e e8 2f bd b0 43 4d be 8a 6f 40 3e
       -0.21334921 -0.042946033 -0.20045352 0.18792549
000240 80 44 42 3d fd 31 46 3e 8f a5 83 bc 8d 8b ef bd
       0.047428608 0.19355007 -0.016070155 -0.11696539
000250 5d eb 92 3d af 15 15 3e 4c 85 ed bc 25 22 2f 3e
       0.07173798 0.14559053 -0.028994225 0.17102869
000260 9f 22 b8 3b a6 23 89 bd 0c d4 1c be 41 43 63 bc
       0.0056193615 -0.066962525 -0.15315264 -0.013871015
000270 9e 24 22 be 52 8e 6f 3c 1d 60 4b 3d 8f 68 a0 bd
       -0.15834281 0.014621334 0.049652208 -0.07832443
000280 4a 60 c2 bd 0d 07 ed bd ce c3 bc bc 7e 3e a1 3c
       -0.09491022 -0.115736105 -0.023042586 0.019683119
000290 2a e8 43 3d 92 cc 90 bd c2 06 09 3e 60 dd 31 3e
       0.04782883 -0.07070269 0.13381484 0.17369604
0002a0 ba 82 d0 3d 67 f9 3f bd be 30 e4 3d ce 03 e7 bc
       0.10181184 -0.046868708 0.11142109 -0.028200056
0002b0 79 27 76 3d 23 8b 87 3d 13 fa 14 3e 1d 4b 22 be
       0.060096238 0.06618335 0.1454852 -0.15848966
0002c0 ed f8 1b bd af ce a1 3d a1 76 e5 bd 98 f5 da bd
       -0.03807919 0.0790075 -0.11204267 -0.106913745
0002d0 64 c9 21 3e 55 30 39 be ea 68 1f be 27 ee 79 bd
       0.1579948 -0.18084843 -0.15567365 -0.061018135
0002e0 94 cf 22 3e 21 d0 9a 3d 54 40 0e bd 74 76 1b 3c
       0.15899497 0.07559229 -0.034729317 0.009488691
0002f0 6c 13 80 3d f1 02 1c 3e ac cc de bd 7f c4 90 3d
       0.062537044 0.15235497 -0.10878882 0.07068729
000300 01 b4 18 3d 3f 09 f5 3c a9 e9 f4 3d f1 79 30 3d
       0.03728104 0.029911635 0.1195863 0.043085042
000310 a1 41 c8 bc e1 e9 88 3e 53 47 3f bb bb 49 10 bd
       -0.024445357 0.26740935 -0.00291868 -0.035226565
000320 3f 71 41 bd 39 13 cf bd d0 e6 79 3e 97 c1 3e 3d
       -0.04722714 -0.10111088 0.24404454 0.04657134
000330 82 4b 06 be f5 f6 66 3d b2 30 ec 3d e7 78 f5 bd
       -0.13114741 0.05638786 0.115327254 -0.11985951
000340 b3 5b 12 3e ff d1 b5 3c 08 e1 48 be 3e cd 4a be
       0.14292793 0.02219486 -0.19617093 -0.19804856
000350 c1 9a bb 3c 55 d9 98 3c d6 cc dd 3d fe 44 0b be
       0.02290094 0.01865832 0.10830085 -0.13600537
000360 be 17 10 3c ef 9f a0 bd f8 11 16 be 26 45 7e 3c
       0.008794723 -0.07843005 -0.14655292 0.015519416
000370 a5 bb f2 bc 73 a9 8f 3d 11 09 04 3d 7f 6d 50 be
       -0.029630492 0.07014742 0.03223521 -0.2035427
000380 14 d6 e2 bc 68 7e 02 3e 71 02 3d bd 93 0f 49 bc
       -0.027689971 0.12743533 -0.046144906 -0.01227178
000390 87 ab 8b 3d e7 3d f0 3d 82 33 aa 3d d1 2e c9 3d
       0.068198256 0.11730557 0.083106056 0.09823383
0003a0 49 3b 3f be f4 f6 47 be 5f d1 c1 bd 2c 10 8e bd
       -0.18674959 -0.19527799 -0.094637625 -0.06936678
0003b0 6e b0 43 3d d0 d8 93 3d 93 f9 f8 bd e6 a3 ee bd
       0.04777568 0.07219088 -0.121569775 -0.11652355
0003c0 50 f1 ff 3d 36 44 67 bd 4d 34 01 be 98 c8 9f bc
       0.124971986 -0.056461535 -0.12617607 -0.01950483
0003d0 ad 56 c4 3d ca 42 03 3e 3f 16 32 bc 7a 8b 90 3d
       0.095868446 0.12818447 -0.010869562 0.07057853
0003e0 07 dc 45 bd 9d 08 c8 bd 44 25 bf bd 67 20 40 3e
       -0.048305538 -0.09767268 -0.0933328 0.1876236
0003f0 4c 08 08 3e f7 ac c2 bd 31 74 1a be de 7c 54 be
       0.13284415 -0.09505647 -0.15083386 -0.20750758

transformer.layers.0.linear1.bias f4 [64]
000000 d9 26 18 bc 3b de ba 3d ea 1c 1e bd bb eb ee 3d
       -0.009286606 0.09124418 -0.038601793 0.11666056
000010 ef a1 1b 3e 79 0a b4 bd 36 71 b5 bc d8 3f 6f bd
       0.15198492 -0.0879106 -0.02214871 -0.058410496
000020 66 ca a8 3d 0b 84 ee bd 43 75 56 3d 07 4d c0 bd
       0.082417294 -0.11646279 0.052357923 -0.09389692
000030 aa 0a 19 3c e7 6f 06 3d 99 df 06 3b ac 2c 9a bd
       0.009340921 0.032821562 0.0020580052 -0.07528052
000040 21 dd 18 3d 69 01 64 3d c8 a1 15 3e 20 a4 ef bd
       0.03732026 0.055665407 0.14612496 -0.11701226
000050 95 13 d6 3c f4 0a bc bd 50 e4 a2 3d 6f 4a 83 bc
       0.026132384 -0.09181777 0.079537034 -0.016026704
000060 a4 a3 05 be 0a 5f 07 be d7 8a a5 3d 15 f1 52 be
       -0.13050705 -0.13219848 0.08083122 -0.20599778
000070 45 ac 2a be a0 c5 3c 3d 79 28 cd 3c 34 f9 7e bc
       -0.16667278 0.046086907 0.025043713 -0.015562344
000080 47 d1 ed 3c d6 53 ba 3d f2 c7 a1 bd c9 20 ff bd
       0.029030455 0.09098022 -0.07899465 -0.12457425
000090 a1 9b a5 bc 1f f2 03 3e aa d6 9e 3d b6 76 06 3e
       -0.020215811 0.1288533 0.07755788 0.13131222
0000a0 ee f9 42 be 23 91 12 be d7 52 46 bd 57 0c 3a 3d
       -0.19040653 -0.14313178 -0.048418846 0.045421924
0000b0 64 b8 d3 bd 85 66 35 bd 9f b8 0c be e0 68 0a bd
       -0.10337904 -0.044287223 -0.13742302 -0.033791423
0000c0 7f 4e 08 be ca 15 f8 bd ac a9 94 bb dc ee 18 bd
       -0.13311194 -0.12113531 -0.004536828 -0.03733717
0000d0 fe 49 02 be 7b 09 13 be 6a ce 2c 3d d2 8c 34 3e
       -0.12723538 -0.14359085 0.04218904 0.17631844
0000e0 ad de ea bd ee 6f e8 3d 92 e8 ab bd 1c 21 83 3c
       -0.11468253 0.11349474 -0.08393969 0.016006999
0000f0 2a 28 6d 3c 98 d5 e5 3d 64 15 7f bd d8 db eb bd
       0.014474908 0.112223804 -0.06227626 -0.11516541

transformer.layers.0.linear2.weight f4 [32, 64]
000000 9a 62 d1 3a de 99 37 bd a1 8c 13 3d d5 54 ae 3d
       0.001597482 -0.044824474 0.036022786 0.08512274
000010 01 e6 00 be c6 90 9d bd 80 bc 43 3d 27 5e e1 3d
       -0.1258774 -0.07693629 0.04778719 0.11004286
000020 2c 9f 5a bd 28 4c 95 3d 10 53 4c 3d e3 8f 02 be
       -0.053374454 0.07289916 0.049883902 -0.12750201
000030 b7 54 05 3e eb 5a fa bd 20 b7 b1 bd 40 56 a7 3d
       0.13020597 -0.122243725 -0.086775064 0.08170748
000040 6e df f6 bd 51 fb 92 bd b8 5d 42 3d 4e 73 b4 bd
       -0.120543346 -0.07176841 0.04745266 -0.08811055
000050 27 bf 5b 3d 43 c1 e0 3c 7a da b1 3d 61 95 bc 3d
       0.053649094 0.027435904 0.08684249 0.09208179
000060 08 80 0b bc ad 10 23 3e b3 aa ef 3d 41 f5 0e be
       -0.008514412 0.1592433 0.1170248 -0.13960744
000070 99 43 85 3c 70 2f 76 3c 18 48 e6 3d f5 28 b9 bd
       0.016267585 0.015025958 0.112442195 -0.09041015
000080 87 48 ba bd ef d3 54 bd fb 27 d4 3d fe 14 0c be
       -0.09095865 -0.051959928 0.10359188 -0.13679883
000090 d7 b3 0a be e7 25 d4 3d 39 be 59 3b fd 74 07 3d
       -0.13545166 0.10358792 0.0033224954 0.033070553
0000a0 ea 29 a8 bd 3d 5b c4 3d d9 27 20 bd 73 98 64 bc
       -0.082111195 0.09587715 -0.0391005 -0.013952362
0000b0 ae 12 a9 3d 0a b8 db bd 16 c6 a1 bc aa 72 c0 3d
       0.08255516 -0.10728462 -0.019747775 0.093968704
0000c0 3b 11 17 3d 28 6a d3 bc 8a e0 e3 3d 18 31 d2 3d
       0.036881667 -0.025807455 0.11126812 0.1026327
0000d0 de 5e 79 bd 10 3b 70 bd 23 c2 16 be 15 9a 53 bd
       -0.060881488 -0.058650076 -0.14722495 -0.051660616
0000e0 9c d6 b7 bd 18 42 23 3c df 1a 3b bd f9 a6 d4 bc
       -0.0897648 0.009964488 -0.045679923 -0.025958525
0000f0 32 26 8e 3d e2 07 76 3c a7 4a 8b 3d 65 1a 03 bd
       0.06940879 0.015016528 0.06801348 -0.032007594
000100 0d f4 35 bd 29 2e 9f bd c5 e8 01 3b 37 b5 30 3c
       -0.044422198 -0.07772476 0.001982258 0.0107853925
000110 00 81 e2 bd e5 1b fe bd f7 a2 2a 3d bf 18 ee bc
       -0.11059761 -0.12407664 0.04165932 -0.029064534
000120 72 d8 56 3d 32 f7 00 be a2 09 9f bd a5 3b 4d bd
       0.052452512 -0.12594298 -0.07765509 -0.05010571
000130 f7 ed c8 bc 76 e4 b3 bd cd 8c ee 3d 85 8b b5 3d
       -0.024527533 -0.0878381 0.11647949 0.08864502
000140 00 6e 17 be 76 6a 15 3d 0c 16 7c 3d 1f 48 f7 bb
       -0.14788055 0.036478482 0.061544463 -0.0075464393
000150 0a 33 7e bd 9d a9 7e 3d 78 9c bd 3d d0 3c ce bd
       -0.062060393 0.062173475 0.0925836 -0.10070193
000160 82 58 08 bd 96 54 1a 3d 00 8f ee 3d 96 6b 9c bb
       -0.033287533 0.037678324 0.11648369 -0.0047735674
000170 46 dd 0e be 9d 82 d2 bd 06 3e b5 3d a2 eb 6c bd
       -0.13951597 -0.10278819 0.08849721 -0.057841904
000180 20 2b 69 b8 dc a0 d3 3d ec 28 9d 3d 9b d9 44 3d
       -5.5591692e-05 0.10333416 0.07673821 0.048059087
000190 e5 be fc 3d 98 39 0e be 25 a5 69 3d e0 d5 84 3d
       0.12341098 -0.13889158 0.05704226 0.06486106
0001a0 fd e5 dd 3d 74 18 db 3d 12 b2 d2 bc f5 b6 dc 3d
       0.108348824 0.106980234 -0.025719676 0.10777084
0001b0 a3 88 76 3d 01 5d 14 3d 9f ef d7 3d 7c 77 1c 3b
       0.0601889 0.036221508 0.10543751 0.002387493
0001c0 d3 2f ac 3c 79 41 84 3d 1b f2 64 3c e3 e3 eb 3d
       0.021018898 0.064578004 0.013973738 0.11518075
0001d0 d6 8b d0 bb 44 a4 0c 3d 93 ae f4 bd 1a f0 16 be
       -0.006364326 0.034336343 -0.1194736 -0.14740029
0001e0 e5 7f 69 3d 24 d6 94 bd c3 86 26 3e df a3 d9 bd
       0.057006735 -0.072674066 0.16262345 -0.10626959
0001f0 5d 6c 4d bd 93 a8 7c bd 96 c0 8f bd 58 af f2 bd
       -0.05015217 -0.061684202 -0.07019155 -0.118498504
000200 e7 a2 e8 3c a6 5e 0b 3d e3 8f 04 3e 3b 63 9b bd
       0.02839799 0.03402581 0.12945513 -0.07587286
000210 e0 c6 b9 3c 5f 5b b3 bc 5b e1 74 bd 42 2a 45 bd
       0.022677839 -0.021894155 -0.05978523 -0.048136003
000220 4c ff 80 bd 72 86 ec 3d 22 8c 94 3c fd 57 bb bd
       -0.06298694 0.11549081 0.018133227 -0.09147642
000230 af a1 2b 3d ea 3e 9d bc 33 88 be bd b6 bc d8 bd
       0.04190224 -0.019195039 -0.09303322 -0.10582869
000240 00 d3 e7 3d 65 88 c8 bd 06 30 dc bc 2a a8 db bd
       0.11319542 -0.0979164 -0.026878368 -0.10725434
000250 54 db a6 3d 44 46 bf bd e7 81 d1 bc 39 b1 ac 3d
       0.08147302 -0.09339574 -0.025574638 0.0843224
000260 56 c5 f0 bd 05 e8 18 3d ab 4d dd 3d 52 91 a5 bd
       -0.11756389 0.037330646 0.108058296 -0.08084358
000270 19 45 ed 3c e0 a8 0b 3e e1 82 a0 bd ef 21 a8 bd
       0.028963612 0.1363864 -0.07837463 -0.08209597
000280 1b ba 29 bd c8 aa 23 3d 29 9e 04 be 1c 87 45 3d
       -0.04143725 0.03995779 -0.12950958 0.048224553
000290 19 ac c8 bc 1b 49 d5 bd db 3e 11 bc 2c 95 21 bd
       -0.024496125 -0.104143344 -0.008865084 -0.039448902
0002a0 ff 81 a7 3d ee 48 cc 3d c4 14 34 3c 41 39 85 bd
       0.08179092 0.09974848 0.010991279 -0.06505061
0002b0 e6 3f be 3c eb 9a af 3d ba a9 e3 bc a8 02 23 3e
       0.023223829 0.0857447 -0.027790893 0.15918982
0002c0 c7 41 0b 3d 19 7a 99 3d 30 fc ac bc 63 96 05 3e
       0.033998277 0.074939914 -0.021116346 0.13045649
0002d0 55 51 a1 bc 90 11 c5 bd 4a 7b ae bc b8 a3 1c bd
       -0.019692102 -0.096224904 -0.021299023 -0.038242072
0002e0 0b a8 d4 3d de 65 0a 3c 0a df be 3d 51 2d 39 3d
       0.10383614 0.008447139 0.09319885 0.045209233
0002f0 4a c5 4f bd 1b ec fa 3d 4b 6e 9c bd 8c 49 7f bd
       -0.05072526 0.12252065 -0.07638224 -0.062326
000300 8d 4d 14 bd 2e 23 9e bd bc 33 09 3e d0 9d cc 3d
       -0.03620677 -0.07721554 0.13398641 0.09991038
000310 33 2a 0e bd d4 2b 39 3c a6 ec a3 3d 80 5b e0 bd
       -0.034708213 0.011301953 0.080041215 -0.10954952
000320 4a 04 d4 bd 64 c0 27 bd b2 34 08 3e 96 ff 6f bc
       -0.103523806 -0.040954962 0.13301352 -0.014648339
000330 95 f6 8f 3c 08 2c 76 3d fa 99 be 3d 53 ab 9b bb
       0.017573634 0.060100585 0.093067124 -0.004750648
000340 cf 50 39 3c 4b be 4a 3d a0 cc 70 bb 49 c0 12 3d
       0.01131077 0.049497884 -0.003674306 0.03582791
000350 0b ce 80 bc da ba 74 3d 6a 2a 0f 3e 0b 25 27 bc
       -0.015723249 0.059748508 0.13981023 -0.010201703
000360 5f e8 7a 3c 0a a3 94 bd 7d 20 30 3b c9 39 2b bd
       0.015314191 -0.0725766 0.0026874833 -0.041803155
000370 7a b0 8a 3d 59 18 f8 3d 1a 82 5b 3c b5 51 55 3c
       0.067719415 0.12114019 0.013397718 0.013019969
000380 43 d4 77 bd df 63 8b bd a1 d5 24 3d c6 38 c9 bb
       -0.060505163 -0.06806158 0.040242795 -0.006140801
000390 03 aa 5e b9 57 88 e1 bd 03 54 03 3b 83 c4 25 be
       -0.00021234904 -0.11012333 0.0020039089 -0.16188245
0003a0 c7 33 ba 3d 24 fa 81 bd 4a f5 0e 3c ee 13 6e bb
       0.09091907 -0.06346539 0.008725474 -0.0036327797
0003b0 1e cc e0 3d d0 33 01 bd 06 77 01 3d d1 21 07 be
       0.10976432 -0.031543553 0.03160765 -0.13196494
0003c0 95 88 75 bc fa 8d a1 3d ae b9 d8 3d c1 97 f4 3c
       -0.014986177 0.07888408 0.105822906 0.029857518
0003d0 f8 fb f2 bc 90 c1 9e 3d d7 25 18 3c c2 4d 34 bc
       -0.029661164 0.07751763 0.0092863655 -0.011004867
0003e0 c1 6f 07 3c 10 59 fb 3d 9d 9d 0e 3d f2 db ca bd
       0.00826639 0.12272847 0.03481828 -0.099052325
0003f0 86 fd c1 bd d7 89 ee bd ed 75 b5 bd f0 b5 86 bd
       -0.09472184 -0.116473846 -0.08860383 -0.065776706

transformer.layers.0.linear2.bias f4 [32]
000000 e1 77 6a 3d 10 6f 9f bd 8e 72 0a bd b7 57 c5 bc
       0.05724323 -0.07784855 -0.033800654 -0.024089677
000010 79 ca b9 bd 36 4a cf 3d 27 fb b5 3c 2c 67 d1 3d
       -0.09071822 0.101215765 0.022214485 0.102247566
000020 ae c1 db 3c d1 42 f4 3d 29 26 1f bc db 3e bc bd
       0.026825752 0.11926807 -0.009713688 -0.09191676
000030 c4 ef 02 3d 89 a2 87 bd ef ee 7b 3d 89 6f 9f 3d
       0.03196694 -0.06622798 0.06150716 0.077849455
000040 71 78 01 3e 1a a0 e5 3d 38 7e b6 3c ad c0 5b bd
       0.12643601 0.112121776 0.022276983 -0.053650547
000050 d7 95 1f bd dc 4b 9d bd ab 7f 04 3e 9c 01 1f 3e
       -0.038961258 -0.07680485 0.12939326 0.15527958
000060 cf 83 c8 bc 82 a7 10 3e 76 6e 7b bb 5b c6 05 3d
       -0.024476914 0.14126399 -0.00383654 0.03265987
000070 aa 68 77 bd a6 3f d8 bc 2c 29 24 bd 73 59 70 3d
       -0.06040255 -0.026397537 -0.040078327 0.058679055

transformer.layers.0.norm1.weight f4 [32]
000000 57 1a 80 3f e3 0e 8a 3f 6f 8d 7f 3f 78 1b 73 3f
       1.0008038 1.0785793 0.99825186 0.9496379
000010 54 67 7a 3f d9 ee 86 3f 4e 97 83 3f cd 39 7e 3f
       0.97813916 1.054164 1.028055 0.99306947
000020 da cd 75 3f a7 ce 82 3f 67 cf 85 3f bf cb 80 3f
       0.9601723 1.0219315 1.0453919 1.0062178
000030 79 2c 7b 3f ca 28 7f 3f 6f a0 82 3f ef e1 81 3f
       0.98114735 0.99671614 1.020521 1.0147074
000040 e4 65 7a 3f 6a b5 83 3f 44 b9 7d 3f 3d ab 83 3f
       0.9781172 1.0289738 0.9911082 1.0286633
000050 b5 1a 83 3f 3f 78 81 3f e2 7d 77 3f a4 ed 77 3f
       1.0242525 1.0114821 0.96676457 0.96846986
000060 e8 e1 6c 3f e5 f8 7b 3f 93 66 78 3f cf cd 78 3f
       0.92532206 0.9842666 0.97031516 0.9718904
000070 5f 06 85 3f 21 0b 7f 3f ca e3 7e 3f e2 d8 7f 3f
       1.0392569 0.99626356 0.9956633 0.9994031
